model.pth (torch, 21885 bytes, 6 tensors)

fc1.weight f4 [64, 6]
0.014766501 -0.07352188 0.21410286 -0.042737894 -0.094726324 -0.6202674 0.07234877 -0.18549316
0.3453575 -0.025883097 0.28171766 -0.6883517 0.015591249 0.027379563 0.030640299 0.16805919
-0.059164897 -0.18280105 0.2545837 -0.07486214 -0.41907465 -0.07380482 -0.00349135 0.28869858
-0.33867994 -0.02141937 0.025243167 -0.0067092464 0.24578574 -0.25523165 0.13384403 -0.1959279
-0.064708024 -0.16547398 0.29670146 -0.4933025 0.015565778 0.0947149 0.19226485 -0.37122357
-0.41565102 -0.009049462 0.15926808 -0.11012055 0.12777324 0.15029943 -0.12332332 -0.32938305
-0.7174555 0.3275661 -0.28146026 0.15131295 -0.84915763 0.6309704 0.12838377 -0.024623161
-0.17236665 -0.07022209 -0.28574565 -0.34593067 0.008691118 0.11396132 -0.6797095 0.28253806
0.21844333 -0.4347369 0.16715465 0.21710096 0.050317615 0.067200005 0.13199545 0.32312575
0.33533353 0.07285589 -0.05917042 0.037725102 0.041705266 -0.1702188 -0.0762629 -0.51190704
0.47014487 -0.14555396 -0.075403176 -0.99015486 0.056411337 0.29750702 -0.24073827 0.29863176
0.27374962 -0.38296732 -0.102884695 0.024392564 0.024243461 0.06572246 0.2615294 0.4539499
-0.05422768 0.19753444 -0.28190395 0.13926081 0.13453092 0.7007526 0.324679 0.113801904
-0.02416392 0.13583219 -0.25261688 -0.26133516 -0.11339113 0.22080411 -0.2267574 0.4529826
0.19043297 0.3668077 -0.07577533 0.099191695 -0.36960462 -0.33265957 -0.20508577 0.39581385
-0.042392604 0.16117805 0.2248008 0.19661115 0.06045469 -0.20163886 -0.22152296 0.19914407
0.3060951 -0.4594509 -0.04126216 -0.045403514 0.47574154 -0.024687834 -0.10800678 -0.05428027
-0.15547408 0.4315346 -0.30103895 0.23811541 0.23582771 0.3537445 0.34693286 -0.3842201
-0.037898906 0.017678397 -0.18614268 0.10082214 0.15231906 -0.5541562 -0.11536159 0.5903855
0.27519175 -0.017703237 0.20114827 -0.061973087 -0.14987025 -0.36258987 0.27471057 -0.09845113
-0.262102 -0.2844383 -0.1275042 0.29989997 0.15015729 -0.037990455 -0.25608826 -0.84136623
0.0029883778 0.020152166 0.26894835 0.031837437 0.08169962 -1.258917 0.21221952 0.17968649
-0.16917795 -0.19537331 -0.043803703 -0.015668306 0.21756238 0.072093524 -0.24333549 -0.3393761
-0.15857418 -0.32590362 0.08926385 -0.15336846 -0.22834936 -0.16667719 -0.39867097 0.22580564
0.44366553 -0.18352409 -0.29447094 -2.1146743 0.29143342 -0.3923441 0.26458988 0.32750008
0.20054393 -0.050353624 -0.022220306 0.31736934 -0.18149158 0.11492658 0.08445126 -0.026577117
-0.4007572 0.08208999 -0.0051840283 0.31609178 -0.38329208 0.37730768 0.48791468 0.16576849
-0.32782295 -0.16910665 0.14094506 -0.2951139 -0.09828727 -0.13185066 -0.056090422 0.53942484
-0.089421876 0.11008288 -0.4403191 0.010300296 0.34720364 -0.27016774 -0.32605463 0.19739535
0.13896659 -0.26900595 0.119010456 -0.073372625 -0.3024332 -0.3906663 0.083431736 0.009311506
0.18877333 0.11159525 -0.10698979 0.30597487 0.17662632 0.03658351 -0.44790724 -0.29907417
0.2253974 0.4256182 0.019231785 0.20282546 -0.22786672 0.02255744 0.010218903 -0.33300507
00000000: 32ef 713c a492 96bd c83d 5b3e ee0d 2fbd
00000010: e0ff c1bd d8c9 1ebf 982b 943d ebf1 3dbe
00000020: b3d2 b03e ca08 d4bc 4c3d 903e d137 30bf
00000030: 7072 7f3c 1b4b e03c 5d01 fb3c b517 2c3e
00000040: e456 72bd 3330 3bbe cb58 823e 5251 99bd
00000050: f490 d6be fb26 97bd 22cf 64bb 4dd0 933e
00000060: 7567 adbe ad77 afbc c2ca ce3c 3dd9 dbbb
00000070: 42af 7b3e b9ad 82be 690e 093e 53a1 48be
00000080: a485 84bd 0372 29be 41e9 973e 2592 fcbe
00000090: 9b07 7f3c e3f9 c13d 14e1 443e 0411 bebe
000000a0: 36d0 d4be 3244 14bc 2c17 233e e286 e1bd
000000b0: fdd6 023e 18e8 193e f090 fcbd e5a4 a8be
000000c0: 2aab 37bf beb6 a73e 8f1b 90be c8f1 1a3e
000000d0: 6562 59bf 4787 213f 0977 033e 83b6 c9bc
000000e0: e280 30be 99d0 8fbd 414d 92be d31d b1be
000000f0: 3165 0e3c 8d64 e93d 7101 2ebf d4a8 903e
00000100: 9caf 5f3e d695 debe 972a 2b3e b74f 5e3e
00000110: d819 4e3d 28a0 893d d129 073e bd70 a53e
00000120: d6b0 ab3e 7835 953d af5c 72bd a385 1a3d
00000130: 24d3 2a3d d64d 2ebe b92f 9cbd 570c 03bf
00000140: d4b6 f03e 190c 15be fb6c 9abd ca7a 7dbf
00000150: 930f 673d d752 983e 1884 76be 43e6 983e
00000160: e928 8c3e 4b14 c4be 36b5 d2bd ead2 c73c
00000170: 399a c63c 7f99 863d 2ee7 853e 1f6c e83e
00000180: d81d 5ebd 7846 4a3e b755 90be 639a 0e3e
00000190: 79c2 093e 8664 333f 533c a63e f910 e93d
000001a0: 6af3 c5bc 9817 0b3e 0057 81be b9cd 85be
000001b0: 9c39 e8bd 791a 623e 1833 68be 56ed e73e
000001c0: dc00 433e 38ce bb3e 1930 9bbd 0425 cb3d
000001d0: d13c bdbe 5b52 aabe 0102 52be 1da8 ca3e
000001e0: dea3 2dbd dc0b 253e 2e32 663e 6f54 493e
000001f0: 569f 773d 6b7a 4ebe ead6 62be 6cec 4b3e
00000200: 7fb8 9c3e 263d ebbe 8302 29bd 09f9 39bd
00000210: 6594 f33e 243e cabc a932 ddbd fd54 5ebd
00000220: 9934 1fbe 1af2 dc3e c721 9abe 87d4 733e
00000230: d27c 713e 001e b53e 2fa1 b13e 7fb8 c4be
00000240: e23b 1bbd 49d2 903c 309c 3ebe d77b ce3d
00000250: 87f9 1b3e 2edd 0dbf b342 ecbd 8123 173f
00000260: efe5 8c3e 6106 91bc d0f9 4d3e 7ed7 7dbd
00000270: 9677 19be 61a5 b9be dda6 8c3e bfa0 c9bd
00000280: 3c32 86be e6a1 91be 7690 02be 7d8c 993e
00000290: d5c2 193e e19b 1bbd 001e 83be c763 57bf
000002a0: a9d8 433b 2816 a53c 99b3 893e f967 023d
000002b0: 2152 a73d 3124 a1bf 1350 593e bcff 373e
000002c0: fc3c 2dbe f10f 48be 836b 33bd d25a 80bc
000002d0: acc8 5e3e c5a5 933d f02c 79be b4c2 adbe
000002e0: 4561 22be d7dc a6be f7cf b63d 9f0c 1dbe
000002f0: 6ad4 69be 6dad 2abe 9a1e ccbe 9839 673e
00000300: 2128 e33e bded 3bbe e5c4 96be d356 07c0
00000310: c336 953e 53e1 c8be 5378 873e 17ae a73e
00000320: 635b 4d3e 9a3f 4ebd 5c07 b6bc 3c7e a23e
00000330: eed8 39be a05e eb3d c8f4 ac3d 41b8 d9bc
00000340: 0c30 cdbe cc1e a83d c8de a9bb c8d6 a13e
00000350: dc3e c4be 792e c13e f4cf f93e 37bf 293e
00000360: 69d8 a7be 4b2a 2dbe e753 103e 2b19 97be
00000370: d64a c9bd dc03 07be 12bf 65bd bf17 0a3f
00000380: d122 b7bd 2273 e13d 8171 e1be 93c2 283c
00000390: adc4 b13e 6d53 8abe a2f0 a6be 0222 4a3e
000003a0: 424d 0e3e 26bb 89be c1bb f33d 6344 96bd
000003b0: 86d8 9abe 6a05 c8be 42de aa3d 498f 183c
000003c0: cc4d 413e 0d8c e43d 771d dbbd bda8 9c3e
000003d0: 88dd 343e 97d8 153d 1954 e5be 4020 99be
000003e0: 93ce 663e a1ea d93e fa8b 9d3c 7ab1 4f3e
000003f0: e555 69be 61ca b83c 306d 273c a47f aabe

fc1.bias f4 [64]
0.38662428 0.16771841 -0.26812363 0.20855172 0.2973203 -0.0002500766 0.28555447 -0.3806294
-0.023231277 -0.27024356 0.30440164 -0.28105253 0.039764695 0.25184712 -0.0570161 -0.1435114
-0.28785035 0.15703394 -0.24969062 -0.18978837 -0.08266424 0.3364331 -0.08562705 -0.23743613
0.28588852 -0.3654904 -0.33319792 0.34477776 0.15254174 0.15319946 -0.34562612 0.51425576
0.010243305 -0.42651722 0.2253717 -0.40350458 -0.16366091 0.06515311 0.28914538 0.41443557
-0.20731263 0.23456807 0.3962269 0.10146981 0.13848256 -0.41631415 -0.19359171 0.31694835
0.19208264 -0.059375577 0.1211156 0.066703156 -0.34057274 -0.07672269 -0.023196729 0.087554514
-0.3459306 0.38528922 0.2580555 -0.17190713 0.0037693898 -0.42411157 0.10084467 0.179095
00000000: 9ef3 c53e 60be 2b3e 8047 89be 958e 553e
00000010: 5e3a 983e b71c 83b9 3234 923e dbe1 c2be
00000020: 854f bebc 5d5d 8abe 88da 9b3e 1ee6 8fbe
00000030: 4ee0 223d 1bf2 803e b789 69bd a7f4 12be
00000040: 1f61 93be 81cd 203e e6ae 7fbe e257 42be
00000050: de4b a9bd f640 ac3e 3c5d afbd 7522 73be
00000060: fb5f 923e 8f21 bbbe eb98 aabe b686 b03e
00000070: e733 1c3e 52e0 1c3e e8f5 b0be 44a6 033f
00000080: 89d3 273c 7760 dabe d7c7 663e 2798 cebe
00000090: ba96 27be fe6e 853d dd0a 943e e630 d43e
000000a0: c349 54be 9d32 703e 41de ca3e 67cf cf3d
000000b0: 5fce 0d3e 2127 d5be e83c 46be 0e47 a23e
000000c0: 50b1 443e ce33 73bd 750b f83d aa9b 883d
000000d0: 8d5f aebe c920 9dbd 1107 bebc c84f b33d
000000e0: d11d b1be a144 c53e da1f 843e 6c08 30be
000000f0: de07 773b 2725 d9be a687 ce3d ae64 373e

fc2.weight f4 [64, 64]
0.087912545 0.053354055 0.050263956 0.030534603 0.097338006 0.24966326 0.20152642 0.035865426
-0.032042164 -0.04905407 -0.29154375 0.028474508 0.0023952357 0.43767527 -0.080347344 0.06866163
0.09782801 0.0496151 0.22086443 -0.10192108 -0.044329666 0.02669776 0.24206139 -0.07781717
-0.11540252 -0.13114962 -0.09741679 0.11472702 -0.28867483 -0.14459631 -0.0055262893 0.24080057
0.28313583 0.42540663 0.23613703 -0.13247542 0.06859474 0.10918564 -0.019755417 -0.19766209
0.1497618 0.1526127 -0.24038519 -0.17072754 -0.11993672 -0.03569744 0.0150561845 -0.047682784
-0.03703765 0.09369481 0.13587844 0.1466065 0.38376245 0.061079826 0.17581311 0.24588647
-0.07894215 0.07889747 0.0928727 0.7061597 0.048961412 0.08731232 0.093471974 0.1873045
-0.065398894 0.22668254 0.10648681 0.07844334 0.19804065 0.14128195 0.2521387 0.0054195076
0.32978237 -0.07680786 -0.23542522 -0.08117198 -0.16439553 -0.24061683 -0.0650052 0.11494637
0.19239517 -0.27801725 -0.06272423 0.05760339 0.11391488 0.34861502 0.10856975 0.3114816
-0.016818449 0.2256258 0.09314342 0.1631287 0.23302437 -0.13622822 0.02529265 0.0896986
-0.4586687 0.17014344 0.28365272 -0.1576109 0.098995 -0.14278382 -0.28062657 -0.13915281
-0.18046044 0.10409019 0.098593734 -0.09179928 0.15669023 -0.06356281 0.11593627 -0.00545612
0.24361718 0.049653888 0.17568184 0.4440416 0.023153488 -0.008841311 -0.10062877 -0.03262078
-0.04692985 0.29050872 0.029218348 -0.9311618 -0.23227711 0.053360447 0.01800825 0.0058001354
-0.075543374 -0.061239854 -0.08845471 -0.12516832 -0.0544388 0.038415745 0.015894644 -0.10411793
-0.01865983 0.034767583 -0.06006297 -0.13338028 -0.07202196 0.013878271 0.08748602 0.028456822
-0.04516433 -0.08301884 0.0037571082 0.0630085 -0.017286412 -0.1290423 -0.045790732 0.031209424
0.04344062 -0.008217489 0.08256173 -0.028560009 -0.04945916 0.0970511 -0.10735604 0.06674204
0.027977884 -0.009906667 -0.123948134 0.108994246 0.07380441 0.04109151 -0.12251875 0.011700571
-0.0021595259 -0.050349664 0.08536193 0.024056377 -0.023840934 -0.047740817 -0.08127546 -0.06883517
0.07443158 -0.028774412 -0.10705008 0.06499264 0.07780266 0.014460879 -0.09419372 0.039416786
0.10768072 0.09212444 0.043485794 -0.006344244 0.055225488 0.07409926 -0.045346156 0.05835552
-0.23945679 -0.03597577 -0.044642523 -0.76760465 0.07430735 -0.1911904 -0.44970965 -0.092151165
0.28905523 0.07686369 -0.23132357 0.13136353 -0.45509738 -0.28049007 0.19612543 0.028978365
0.12530689 -0.3970437 0.021754175 -0.07613364 0.014818727 0.007486345 -0.2917486 0.112957805
-0.42714512 0.06799727 0.0778503 -0.88935375 -0.25196916 -0.32385874 -0.002111271 -0.18831316
-0.030984921 0.08962268 -0.01651695 -0.3167295 0.051616535 -0.07440838 -0.6582277 -0.09375662
-0.012985004 0.11508428 -1.1221244 -0.72889376 0.032208253 0.08791062 0.2618094 -0.14841816
0.02276135 0.15578319 0.02298329 0.12509866 0.3411546 0.15574369 0.027643181 0.11827007
-0.05111535 -0.027914008 -0.33851963 0.0358605 -0.058101393 0.088866904 0.18296017 0.042877737
00000000: 7e0b b43d c889 5a3d 94e1 4d3d b423 fa3c
00000010: 2659 c73d baa7 7f3e f15c 4e3e a0e7 123d
00000020: a53e 03bd ecec 48bd 3945 95be 5f43 e93c
00000030: 63f9 1c3b f916 e03e 268d a4bd 789e 8c3d
00000040: 0d5a c83d 3439 4b3d 492a 623e 00bc d0bd
00000050: 0693 35bd 43b5 da3c f1de 773e 9c5e 9fbd
00000060: 2858 ecbd 164c 06be 7482 c7bd 00f6 ea3d
00000070: 30cd 93be 0e11 14be e015 b5bb 6d94 763e
00000080: 2ef7 903e e6ce d93e e8cd 713e a3a7 07be
00000090: 667b 8c3d b99c df3d 1dd6 a1bc ee67 4abe
000000a0: 285b 193e 8146 1c3e 8927 76be 33d3 2ebe
000000b0: 62a1 f5bd 7b37 12bd 37ae 763c 064f 43bd
000000c0: cab4 17bd 11e3 bf3d b823 0b3e 0420 163e
000000d0: 837c c43e d72e 7a3d 5a08 343e aac9 7b3e
000000e0: 6cac a1bd ff94 a13d 0b34 be3d e2c6 343f
000000f0: c38b 483d cdd0 b23d 3c6e bf3d c0cc 3f3e
00000100: dbef 85bd 781f 683e c215 da3d e7a6 a03d
00000110: 2bcb 4a3e 37ac 103e 5318 813e 2096 b13b
00000120: 3cd9 a83e 704d 9dbd 4f13 71be 7f3d a6bd
00000130: 4d57 28be 4264 76be 7221 85bd 0169 eb3d
00000140: 3d03 453e 4758 8ebe 9075 80bd 88f1 6b3d
00000150: 344c e93d ab7d b23e d159 de3d 847a 9f3e
00000160: d8c6 89bc 730a 673e fac1 be3d 360b 273e
00000170: f19d 6e3e 697f 0bbe 8832 cf3c e6b3 b73d
00000180: a0d6 eabe 153a 2e3e ee3a 913e c064 21be
00000190: e4bd ca3d ec35 12be 49ae 8fbe 137e 0ebe
000001a0: 9fca 38be 3d2d d53d 83eb c93d 4301 bcbd
000001b0: 6773 203e 382d 82bd ff6f ed3d 40c9 b2bb
000001c0: c876 793e e061 4b3d f1e5 333e 6c59 e33e
000001d0: 62ac bd3c 25db 10bc 7516 cebd 5e9d 05bd
000001e0: 8439 40bd 8fbd 943e 515b ef3c 9f60 6ebf
000001f0: 0dda 6dbe 7c90 5a3d 0a86 933c 100f be3b
00000200: 7cb6 9abd a4d6 7abd be27 b5bd 202c 00be
00000210: 38fb 5ebd d459 1d3d 7c35 823c c83b d5bd
00000220: 80dc 98bc 7468 0e3d 9704 76bd d794 08be
00000230: 4080 93bd b061 633c df2b b33d 481e e93c
00000240: 3cfe 38bd c805 aabd d139 763b 9a0a 813d
00000250: 3c9c 8dbc aa23 04be 108f 3bbd e8aa ff3c
00000260: cbee 313d a6a2 06bc 2016 a93d aef6 e9bc
00000270: b095 4abd bac2 c63d 7cdd dbbd 0db0 883d
00000280: e031 e53c 934f 22bc 85d8 fdbd 6038 df3d
00000290: c426 973d 924f 283d 1ceb fabd c0b3 3f3c
000002a0: d586 0dbb 733b 4ebd 3cd2 ae3d e111 c53c
000002b0: 104e c3bc e08b 43bd c073 a6bd 74f9 8cbd
000002c0: 966f 983d 51b8 ebbc 133d dbbd dc1a 853d
000002d0: 0057 9f3d 53ed 6c3c a3e8 c0bd 7f73 213d
000002e0: b687 dc3d bdab bc3d 291e 323d 60e3 cfbb
000002f0: 1f34 623d 5ac1 973d e4bc 39bd 3306 6f3d
00000300: 2934 75be 545b 13bd 14db 36bd bd81 44bf
00000310: 742e 983d 6bc7 43be 5840 e6be c0b9 bcbd
00000320: 0cff 933e b66a 9d3d 16e0 6cbe 2984 063e
00000330: 8602 e9be 659c 8fbe 1bd5 483e 0964 ed3c
00000340: 7350 003e 5049 cbbe d035 b23c f4eb 9bbd
00000350: 3fca 723c 0350 f53b 1360 95be 6c56 e73d
00000360: c4b2 dabe 2742 8b3d fa6f 9f3d b0ac 63bf
00000370: 1a02 81be d0d0 a5be 405d 0abb 2ad5 40be
00000380: 17d4 fdbc 188c b73d 8e4e 87bc 5e2a a2be
00000390: dc6b 533d 6c63 98bd 9c81 28bf 7903 c0bd
000003a0: 0ebf 54bc 4fb1 eb3d c6a1 8fbf c898 3abf
000003b0: cdec 033d 7c0a b43d e20b 863e eefa 17be
000003c0: 0376 ba3c a185 1f3e 7447 bc3c dd19 003e
000003d0: d1ab ae3e 467b 1f3e f473 e23c 9437 f23d
000003e0: 545e 51bd ebab e4bc 7252 adbe 76e2 123d
000003f0: bafb 6dbd daff b53d e959 3b3e 91a0 2f3d

fc2.bias f4 [64]
0.008139099 0.23601696 -0.07462992 -0.12774639 0.20608501 -0.05732961 -0.08404566 0.001561392
0.16425337 -0.18773828 0.004731751 -0.07820542 -0.1230363 0.14503409 0.064083114 0.09711876
0.07310598 0.18364684 -0.10065733 0.01512079 0.009413445 0.052867923 0.011336361 0.120448
-0.067600645 0.06531547 -0.10076746 0.3033801 -0.12112144 -0.047489673 0.16307306 -0.025144283
-0.048350256 0.09096215 -0.07891973 0.1370111 0.118935466 -0.12676185 -0.018228468 -0.1388036
-0.08674611 -0.029431826 -0.06492863 -0.08054037 0.026287008 0.02463573 -0.20805636 0.14573921
0.20182219 0.25138626 0.08311098 -0.13074441 0.05942758 0.094558686 0.0048259497 -0.11417643
-0.13405073 -0.109179236 -0.12377246 0.111485995 0.019162798 0.1070862 -0.01055114 -0.04281096
00000000: db59 053c 6eae 713e 92d7 98bd f3cf 02be
00000010: f307 533e 74d2 6abd 2220 acbd 9fa7 cc3a
00000020: 0932 283e 773e 40be ce0c 9b3b 2a2a a0bd
00000030: 75fa fbbd d183 143e 023e 833d 33e6 c63d
00000040: 97b8 953d eb0d 3c3e 6e25 cebd 31bd 773c
00000050: da3a 1a3c 098c 583d 25bc 393c 71ad f63d
00000060: 3572 8abd 1ec4 853d 2c5f cebd a354 9b3e
00000070: 840e f8bd 8884 42bd a0fc 263e 62fb cdbc
00000080: eb0a 46bd 5d4a ba3d aba0 a1bd a34c 0c3e
00000090: 7094 f33d dccd 01be de53 95bc 8822 0ebe
000000a0: f2a7 b1bd 031b f1bc 4df9 84bd 59f2 a4bd
000000b0: da57 d73c dfd0 c93c ba0c 55be a93c 153e
000000c0: 7aaa 4e3e b3b5 803e 1736 aa3d dde1 05be
000000d0: 566a 733d fca7 c13d 0023 9e3b 55d5 e9bd
000000e0: 9844 09be 5d99 dfbd 6a7c fdbd c552 e43d
000000f0: 4dfb 9c3c 0250 db3d b0de 2cbc 8c5a 2fbd

fc3.weight f4 [3, 64]
0.006403819 -0.063290395 0.04546547 -0.65640885 0.17568105 0.035861135 -0.045556195 0.13054743
0.057873454 -0.18784697 -0.012378987 0.003606836 -0.059167054 0.011173921 -0.19374898 0.19147211
-0.042285662 0.023502778 -0.10296942 0.3224518 -0.13073671 0.001381166 0.0052074078 0.07704586
-0.0029283327 -0.122160986 -0.07079166 0.0031011663 0.08468372 -0.17058295 0.12879075 0.012860322
0.12931633 0.24968158 0.013728252 0.06590748 -0.021449523 -0.089198746 -0.045287445 0.15508237
0.38871333 0.053321127 -0.017776882 -0.07264008 -0.3081144 -0.051723536 0.13716511 0.034767732
-0.0063741477 0.26834047 0.08554086 -0.0044919993 0.09441371 -0.49579996 -0.09198297 -0.091319546
0.0060194237 -0.009238011 0.09024905 0.1278289 0.19634676 0.18039975 0.11102678 0.038552716
-0.032520894 0.055158496 -0.041618135 -0.06816066 0.078442104 0.05983352 0.01591532 0.10133507
0.0014810731 -0.05071916 -0.053003497 -0.08350781 0.09471617 0.10203155 0.1352535 0.020286357
0.15983182 0.0811166 -0.03194329 -0.12002015 -0.0012077456 0.18859182 0.26406315 0.030536827
0.014693723 0.0745581 0.06188877 -0.20233014 0.10269971 0.22877935 0.06448096 -0.009168521
0.023134807 0.040561758 0.26220647 0.16121593 0.24526085 -0.040023346 -0.051764626 -0.04417422
0.017823158 -0.055209212 0.052774902 -0.13137043 -0.009919004 0.019249177 -0.10214867 0.032906145
-0.1243529 -0.20009372 0.1189706 0.04386685 -0.13680664 -0.029226119 -0.0054785265 -0.014587016
0.099935666 -0.079053484 0.093889266 0.018541748 0.016410097 -0.039047632 0.12221943 0.008476421
0.13605694 0.2711809 -0.061911017 0.049978193 0.114805356 -0.08287563 0.06583763 -0.016895438
0.02096563 -0.7236824 0.041937683 0.047231395 -0.011491412 0.0313272 -0.36872178 0.08947312
0.23037452 0.0173816 -0.036989838 -0.5464075 -0.13208786 -0.049896095 -0.05588847 0.044736665
-0.027693115 0.18248078 -0.05455281 0.24416086 0.0696795 -0.4181402 -0.18044718 0.04419313
-0.060574315 0.42091435 -0.02400868 0.051114634 0.026887706 0.12501201 0.3008973 -0.22814219
-0.2631376 -0.048057534 -0.031279054 -0.03736015 -0.39465845 0.03068717 0.2769585 0.014794365
0.38528126 0.13018136 0.047687106 -0.0835305 -0.38973725 0.13215415 -0.044516943 -0.15456915
0.0039034858 -0.04400674 0.0996601 0.046369284 -0.106945515 0.050851393 -0.092731476 -0.11343363
00000000: 21d7 d13b 659e 81bd 003a 3a3d 690a 28bf
00000010: bce5 333e 20e3 123d 2299 3abd 3aae 053e
00000020: b70c 6d3d f55a 40be 3cd1 4abc ab60 6c3b
00000030: 2759 72bd d212 373c 2266 46be 4411 443e
00000040: bb33 2dbd e688 c03c a2e1 d2bd 6718 a53e
00000050: d8df 05be 3e08 b53a e7a2 aa3b 38ca 9d3d
00000060: 45e9 3fbb 8a2f fabd 38fb 90bd f03c 4b3b
00000070: a86e ad3d 4cad 2ebe b9e1 033e 1ab4 523c
00000080: 806b 043e 87ac 7f3e 76ec 603c 80fa 863d
00000090: e9b6 afbc d5ad b6bd 547f 39bd eacd 1e3e
000000a0: 6f05 c73e 4167 5a3d d3a0 91bc 52c4 94bd
000000b0: 2cc1 9dbe 0fdc 53bd 0375 0c3e 9c68 0e3d
000000c0: 3ade d0bb ec63 893e 0c30 af3d 9f31 93bb
000000d0: fa5b c13d 7ed9 fdbe 9161 bcbd be05 bbbd
000000e0: 963e c53b 075b 17bc 7ed4 b83d 94e5 023e
000000f0: 200f 493e b6ba 383e 0262 e33d 74e9 1d3d
00000100: a134 05bd e0ed 613d c777 2abd d197 8bbd
00000110: 41a6 a03d fe13 753d d860 823c c388 cf3d
00000120: 9120 c23a e5be 4fbd 321a 59bd 2506 abbd
00000130: 8dfa c13d ebf5 d03d e57f 0a3e 932f a63c
00000140: f4aa 233e 7620 a63d f8d6 02bd 20cd f5bd
00000150: 384d 9eba 371e 413e 4933 873e 5e28 fa3c
00000160: f1bd 703c ebb1 983d 147f 7d3d a22f 4fbe
00000170: 3a54 d23d 2245 6a3e 980e 843d 9037 16bc
00000180: 3585 bd3c 1624 263d ed3f 863e ca15 253e
00000190: a925 7b3e 85ef 23bd 2507 54bd 07f0 34bd
000001a0: df01 923c 0e23 62bd 7f2a 583d f885 06be
000001b0: 5183 22bc 73b0 9d3c 5233 d1bd 98c8 063d
000001c0: bcac febd 5ee5 4cbe dca6 f33d baad 333d
000001d0: 0a17 0cbe 9d6b efbc 3685 b3bb 61fe 6ebc
000001e0: 12ab cc3d cbe6 a1bd 0449 c03d dde4 973c
000001f0: 786e 863c 69f0 1fbd 2e4e fa3d b0e0 0a3c
00000200: 8352 0b3e 39d8 8a3e 6896 7dbd efb5 4c3d
00000210: 121f eb3d b3ba a9bd e1d5 863d 4d68 8abc
00000220: 1dc0 ab3c 4043 39bf d9c6 2b3d b575 413d
00000230: 7a46 3cbc f350 003d 1ac9 bcbe af3d b73d
00000240: 4ce7 6b3e db63 8e3c a882 17bd 5de1 0bbf
00000250: 0a42 07be d95f 4cbd 4feb 64bd cb3d 373d
00000260: acdc e2bc 3edc 3a3e c472 5fbd 4e05 7a3e
00000270: 20b4 8e3d 7916 d6be 25c7 38be db03 353d
00000280: c61c 78bd 1682 d73e daad c4bc 945d 513d
00000290: 9b43 dc3c 2603 003e 360f 9a3e 1b9e 69be
000002a0: f9b9 86be fad7 44bd 771e 00bd f506 19bd
000002b0: ac10 cabe a963 fb3c 81cd 8d3e 1064 723c
000002c0: 9643 c53e 434e 053e 8e53 433d 0a12 abbd
000002d0: a48b c7be 6b53 073e 6657 36bd 6047 1ebe
000002e0: a0d1 7f3b 6940 34bd 981a cc3d b8ed 3d3d
000002f0: 4006 dbbd 8d49 503d 00ea bdbd e44f e8bd

fc3.bias f4 [3]
0.13874073 0.085237116 0.25474834
00000000: 0d12 0e3e cc90 ae3d 606e 823e
